shot_boundary_detector_even_distrib.pt (torch_old, 196612 bytes, 10 tensors)

conv1.weight f4 [16, 3, 3, 5, 5]
000000 56 96 12 3d c2 8e a4 3d 3e 8b 1f 3d 7e d7 a2 bc
       0.035787903 0.080350414 0.03895115 -0.019878145
000010 77 aa 7b 3c 2e 61 09 3e e0 5b 99 3d a6 e1 ee bc
       0.015360466 0.13415977 0.07488227 -0.029160332
000020 1e 56 85 3c 85 46 45 3c 0d ee f5 3d 02 b7 91 3d
       0.016276415 0.012040739 0.12008295 0.07114984
000030 ef db be 3d 84 d8 84 bc 29 41 62 3d db cf d1 3d
       0.09319293 -0.016216524 0.055237923 0.102447234
000040 1d 9b 03 3e 3f f6 8b 3d 6a 16 ae 3c 5e e8 c2 bc
       0.1285214 0.06834077 0.021250922 -0.023792442
000050 ec 6b ac 3d 2e ce ce 3d 1c 96 6b 3d 22 b2 4d 3d
       0.08419022 0.100979194 0.057516202 0.05021871
000060 fa 15 ff bc c6 79 44 3d 01 84 96 ba af 58 39 bd
       -0.031138409 0.047967695 -0.0011483432 -0.04525059
000070 b6 6f 05 3c 78 e0 a3 bd d3 aa 27 3e 2c dc ac 3d
       0.00814431 -0.080017984 0.16373758 0.08440432
000080 8b 91 15 bd a3 9c 01 bd a4 24 67 bb 82 94 be 3d
       -0.036515754 -0.03164352 -0.0035269642 0.09305669
000090 c3 1c f1 3d 48 91 69 3c d1 c2 3d bd 93 b1 07 bb
       0.11773064 0.014255829 -0.04632837 -0.0020705208
0000a0 bd cb 6e 3d ee 05 05 3e dc ba e6 3a ae b1 f5 3c
       0.05829977 0.12990543 0.0017603296 0.02999195
0000b0 73 fe aa 3c aa 4c 0a 3e 6c 20 69 3d d7 14 60 3d
       0.020873284 0.13505808 0.056915686 0.054707374
0000c0 6c ae ad 3d 5f 0b 93 3b 3e e9 48 3b 74 cd e8 3d
       0.08480534 0.0044874395 0.0030656601 0.11367312
0000d0 cc fb 8b bb 37 1f c1 bd e1 8a d4 bc 9a d5 be 3d
       -0.00427196 -0.09429782 -0.025945129 0.09318085
0000e0 a7 66 02 3e 94 85 0d 3a 48 ae 75 3d 82 5c a4 bd
       0.12734471 0.0005398628 0.05998066 -0.08025457
0000f0 18 48 87 3d d0 a4 4e 3e 8a 46 1b 3d 3f 2c d5 bc
       0.06605548 0.20180058 0.03790907 -0.026022075
000100 57 58 fb bc b7 f6 44 3d ff 6e 0a 3e 2c d4 18 3e
       -0.030681772 0.048086848 0.13518904 0.14924687
000110 5c 39 3e 3d 93 e3 f3 bb 3d 51 c3 3c 20 8c 81 bb
       0.04644142 -0.0074429004 0.023842448 -0.003953472
000120 4b 80 d5 3c 2e bf 1c bb 15 ab dd bc 4d 4b 83 3d
       0.026062151 -0.0023917663 -0.027059117 0.06410847
000130 0b e1 0c 3c 86 8e c1 bd 83 cc e1 bd 72 98 04 be
       0.008598576 -0.09451012 -0.11025336 -0.12948778
000140 bc 31 00 bb 99 0e 0e 3d 1f a1 cf bd 45 02 47 bd
       -0.0019560894 0.03468189 -0.10138153 -0.04858615
000150 9b 23 7b bc 0a fc 7d 3c cb 05 db bb 59 b5 82 bd
       -0.015328313 0.015501985 -0.00668404 -0.063822456
000160 aa ab e4 bc a6 b7 d1 bd 17 fe f3 3c f4 62 1d 3d
       -0.027913887 -0.10240106 0.029784245 0.038424447
000170 d8 e1 a2 3c fe bb 4f bc 39 94 bc bd 1e 0f d7 3c
       0.019883081 -0.012679098 -0.09207959 0.026252326
000180 28 45 bd 3d 13 a1 89 3d f3 75 19 3d ea 28 9c 3b
       0.09241706 0.067201756 0.037466 0.0047656195
000190 5a f2 88 bd 61 7a a9 3c 1a ba 14 bd 85 88 93 bd
       -0.0668685 0.020688238 -0.036310293 -0.072037734
0001a0 b5 74 c2 bd 41 1b cd 3d 5a 02 75 3d 36 47 d0 bc
       -0.09494916 0.10014964 0.059816696 -0.025424581
0001b0 2a 00 70 bd 64 94 de bd 59 15 e2 3d 78 62 3c 3d
       -0.058593906 -0.10868147 0.11039228 0.045992345
0001c0 3b cc c5 bd 3a 2d 65 3c 74 64 95 bd 18 51 b6 3d
       -0.096580945 0.013987834 -0.072945505 0.08902186
0001d0 0f d1 17 bd 8e 1b 56 bd 33 00 90 bd d9 d4 c2 bd
       -0.03706461 -0.052272372 -0.07031288 -0.09513254
0001e0 fa bc 92 3d 90 76 3c bc dd c7 b4 bc df cf 09 bd
       0.07164951 -0.011502877 -0.022067958 -0.033645507
0001f0 9e c2 b1 bd 8d 99 ec 3c ed 0c 12 3d 02 54 00 bd
       -0.086796984 0.028881812 0.03565686 -0.031330116
000200 a4 f9 04 be f6 67 aa bd 26 a7 db 3c 8b 36 ce 3d
       -0.12985855 -0.0832061 0.026813101 0.10068997
000210 b8 5f a5 3b 87 ec f9 3c f5 53 b0 bd 0e 18 61 3c
       0.005046811 0.030508293 -0.086097635 0.013738645
000220 48 5f 06 3c 57 01 e6 bc 20 d4 9b bc ea 9a ce bc
       0.008201428 -0.02807681 -0.019022048 -0.025220353
000230 df 69 a8 3b bd cd 5e 3d b0 5e a5 3d 5c e7 9a 3d
       0.005139574 0.054395426 0.08074701 0.075636595
000240 a7 af f7 3b e6 b4 b0 bc 12 b6 99 3c 78 be a6 bc
       0.007558781 -0.021570634 0.018763576 -0.020354494
000250 38 23 1c 3d e6 f2 61 bd 65 ca b9 bc ec 4d 93 bd
       0.038119525 -0.055163287 -0.022679517 -0.07192597
000260 ba 5c b3 bd b0 d7 d6 bd 43 fa d1 bd 43 44 7c bb
       -0.087579206 -0.10490358 -0.10252812 -0.0038492836
000270 0f 97 3b 3d b0 d1 aa bd b5 03 a8 bc 66 f6 2c bd
       0.045798358 -0.08340776 -0.02050958 -0.04222717
000280 8e 8f 12 bd 57 08 9e bc d0 25 37 3d c9 08 72 bd
       -0.035781436 -0.019291086 0.044713795 -0.05909041
000290 91 35 50 bd 4a b7 72 3c 40 fd 60 3d 57 8f 18 3d
       -0.050832335 0.014814207 0.054929018 0.037246075
0002a0 20 23 6c bb 8d 23 03 bd 13 4a 2a bc e3 e4 96 3d
       -0.0036031678 -0.032016326 -0.010393637 0.073678754
0002b0 4f 70 21 bc 7b 84 41 3b cc fd 47 3c 79 68 3c bd
       -0.009853437 0.0029528427 0.012206506 -0.04599807
0002c0 60 25 be bd 1f a7 01 be ac 56 18 bc 26 bf ca bd
       -0.092844725 -0.12661408 -0.009298008 -0.0989974
0002d0 4d 7b a3 3d 8e 88 3c 3d 36 e1 cf bd e7 54 b9 3c
       0.07982502 0.046028666 -0.101503775 0.022623492
0002e0 13 f9 1a bd 02 93 8d 3d f2 d0 ac bc 9b 9a d0 bb
       -0.037835192 0.06912805 -0.021095727 -0.0063660867
0002f0 d0 e3 19 bd ba 46 ab 3b 33 af 9f 3d c3 63 aa bc
       -0.037570775 0.005226937 0.077970885 -0.020799523
000300 81 22 b3 bd 58 6e c1 3c 4f f6 35 bc 6b 0a d5 bc
       -0.087468155 0.023612186 -0.011106088 -0.026005944
000310 88 6b 30 3d 83 d8 8f 3d df 36 9e 3c 1f 9f 78 bc
       0.0430713 0.07023718 0.019313274 -0.015174656
000320 4d fe 83 3c 0d 8f 0e bb 26 01 dd bd 03 64 06 be
       0.016112471 -0.0021752745 -0.10791235 -0.13124089
000330 a6 5c 03 be 0e 7f d3 bb 34 b6 db bc 26 58 32 3c
       -0.12828311 -0.006454355 -0.02682028 0.010885274
000340 0f 9a 4d bd a2 d2 60 bd 61 39 5b 3d b7 4d ec 3c
       -0.05019575 -0.054888375 0.053521518 0.028845651
000350 38 e1 99 3c 7d 9b 36 3c 9f fe 1f 3c 09 98 ab bd
       0.01878415 0.01114547 0.009765296 -0.08378608
000360 67 38 b5 bc 32 01 fc bb b6 07 0f bd 76 9a 3c 3d
       -0.022121621 -0.007690572 -0.034919463 0.046045743
000370 b7 21 ba bd 42 96 3d bd 41 ff b3 3c fa 1b ba bc
       -0.09088462 -0.046285875 0.0219723 -0.022718418
000380 f2 6c 2d 3d 47 fd ab 3d 76 7a 01 3e e6 bf 45 3d
       0.042340226 0.08397918 0.12644371 0.04827871
000390 27 2f d6 3d ea 16 ab 3d be f0 6c 3d 54 69 d0 3d
       0.10458212 0.0835398 0.057846777 0.1017634
0003a0 e0 05 aa 3d b8 4c 27 3c d8 87 ba 3c c9 f8 24 3b
       0.08301902 0.010211162 0.022769853 0.0025172702
0003b0 e7 65 9e 3c ae d5 34 3c b2 f3 83 bc bd e6 f9 bc
       0.0193357 0.011037273 -0.016107414 -0.030505532
0003c0 28 8e a7 bd 83 62 2e 3d 50 73 65 bd d9 78 bf bc
       -0.08181411 0.042574417 -0.056018174 -0.023373054
0003d0 5b 0b 49 bd 46 df b1 bd 7f 43 8b bd e1 9f 30 bd
       -0.049083095 -0.08685164 -0.06799983 -0.043121222
0003e0 ab 68 3a bd 11 da 01 bd 4c 83 ec 3d 1c 78 38 3e
       -0.045509975 -0.031702105 0.115484804 0.18014568
0003f0 b8 26 63 3e 76 6d 0c 3e cc e8 c4 3d 6f 48 0d 3e
       0.22182739 0.13713631 0.09614715 0.13797162

conv1.bias f4 [16]
000000 a8 d3 74 be a3 36 8d be 05 51 b5 be 37 02 8a be
       -0.23908865 -0.27580747 -0.35413375 -0.26954815
000010 a4 d4 94 be 8f cd b9 bd 69 e8 e7 bd 77 40 7c be
       -0.29068482 -0.0907241 -0.113236256 -0.24633966
000020 e6 40 39 be 15 c6 c1 bd 12 97 22 3d 96 1d 4c be
       -0.18091163 -0.09461609 0.039694853 -0.19933161
000030 6d 60 c5 3c 4e 9d 77 be 7a 22 30 be 75 a3 14 bc
       0.024093831 -0.241811 -0.17200652 -0.009072174

conv2.weight f4 [24, 16, 3, 3, 3]
000000 67 f2 e7 3d cf f9 c0 3c 9f c7 28 3c 49 0b 9e 3d
       0.113255315 0.023556618 0.0103015 0.07716996
000010 e0 8c 51 3d 3e bd 4e bd 02 cd 65 3d dc 79 a5 3d
       0.05115974 -0.050473444 0.056103714 0.080798835
000020 b7 c6 52 3d ef 9e 67 3d 23 68 a0 bc 9d 6d cd bc
       0.05145904 0.056548055 -0.019580906 -0.025076682
000030 ce c9 d5 3c 43 5e 58 bc d5 9a 40 bd 24 eb 76 3d
       0.026097205 -0.0132060675 -0.04702266 0.06028284
000040 2f c7 89 3d 3e 09 70 bd 42 b3 49 3d bd 61 98 bb
       0.067274444 -0.058602564 0.04924322 -0.004650323
000050 52 e1 32 bc 26 19 de 3c cd 04 20 bd 29 c7 b7 bd
       -0.010917978 0.027111601 -0.03906708 -0.08973534
000060 62 75 45 3d 72 25 21 3c d1 c7 30 bd fd 67 c0 3d
       0.048207648 0.009835588 -0.04315931 0.09394834
000070 b4 f8 65 3d f9 ff 49 3d b1 5d 67 3d 77 81 ce 3d
       0.056145385 0.04931638 0.056485835 0.10083287
000080 a4 65 4b 3c 95 18 b1 3d ac cb 4d 3d 6e 64 e2 bc
       0.01241437 0.08647267 0.050243065 -0.02763578
000090 ad f4 5c 3b 24 14 20 3d 28 85 72 3d 11 b1 df bc
       0.0033715174 0.039081708 0.05920902 -0.027306112
0000a0 58 ac e3 bc 21 0b 2a bd 09 a9 10 bd eb 79 61 bd
       -0.02779214 -0.04151452 -0.035317454 -0.05504791
0000b0 5a 19 11 bd 81 3a 2b bd 93 d5 48 3d 32 db e2 bc
       -0.035424568 -0.04180384 0.049031805 -0.027692411
0000c0 73 85 fb b7 d6 48 22 3c e1 9b 6f 3c 4f 80 7e bd
       -2.9983674e-05 0.009905061 0.014624567 -0.062134083
0000d0 41 78 87 bd 22 57 2f bc ee be 09 3d a0 0c 25 3d
       -0.066147335 -0.010701926 0.03362935 0.040295243
0000e0 f3 be 03 3d 9e 45 15 3d 2c db 3e bd 39 26 5d bc
       0.032164525 0.036443345 -0.046595737 -0.0134978825
0000f0 a5 a3 5b 3d 3f c9 6d bd 74 da a4 bd d3 9f 9b 3d
       0.05362286 -0.05805325 -0.08049479 0.075988434
000100 23 7e cc 3c 23 fb 25 bc df 3c 1f 3d 04 dc 88 bd
       0.02496249 -0.010130676 0.03887641 -0.0668259
000110 23 bd d5 bc d9 41 00 3d e9 45 36 bd 72 1e e8 bd
       -0.026091164 0.031312797 -0.044500265 -0.11333932
000120 73 fd d0 bc c9 70 ba bc 1f 7c 00 3c 01 08 1f 3c
       -0.025511479 -0.022758858 0.007842093 0.009706498
000130 42 fd c8 bd 4d e7 0d bd f3 7f 1a bd 04 b6 50 bd
       -0.0981393 -0.034644414 -0.037719678 -0.050954834
000140 08 c3 b1 bd cb 3e ce 3d 63 88 1c 3e e0 e4 d3 3d
       -0.086797774 0.100705706 0.15286402 0.10346389
000150 34 ab 24 3c 2e ea 9a bc b5 a6 7f bd 4f d5 90 3d
       0.010050584 -0.018910494 -0.062414844 0.070719354
000160 9b 9a 22 3d dd b4 b0 3d da c2 cb 3d 98 9f de 3c
       0.039698225 0.08628247 0.09949274 0.02717571
000170 ec 36 ea 3a 84 bc 8e bb 7a c3 c3 bd af 78 c4 bd
       0.0017869151 -0.004355969 -0.095587686 -0.09593331
000180 85 1f 7e 3d be 18 0e bc 6b 52 95 bc 95 4c 0d 3d
       0.062041778 -0.008672891 -0.018227777 0.034496862
000190 8e d1 d7 3c 4e f0 fb 3c 88 e8 c9 bc 76 5b 93 bd
       0.02634504 0.030754235 -0.024647012 -0.07195179
0001a0 59 1d 4c bd 45 4f d3 bc 79 f6 e0 bc 5a c5 aa 3c
       -0.049832676 -0.025794635 -0.027461277 0.020846058
0001b0 80 7d fc bc 63 1d 28 bd 06 de f2 bb 6d 35 06 bd
       -0.030821562 -0.04104365 -0.007411721 -0.032765795
0001c0 77 a3 4c 3d 18 9e a2 3b 9b 9e 94 bc d0 7d 16 3c
       0.04996058 0.004962694 -0.018142035 0.0091852695
0001d0 cb c9 b5 3c ab d2 9b bc 4f 6f 80 bd d3 81 ab bb
       0.022190949 -0.019021353 -0.062712304 -0.005233982
0001e0 6c 60 c4 3c 46 41 f9 3c 36 11 99 3c 93 3b 8a bc
       0.023971759 0.030426633 0.018684965 -0.01687411
0001f0 85 a2 4b 39 ba 78 cc bc 63 e8 48 3c e8 bf a0 bc
       0.00019420132 -0.02495991 0.012262437 -0.019622758
000200 17 38 3b 3c 10 5a f8 bc 23 13 ff 3b f0 5f 35 b9
       0.011426947 -0.030316383 0.0077842637 -0.00017297245
000210 e6 4e 5d bd e8 af 12 3d 16 58 4f 3b 3b 5f 21 3d
       -0.05403032 0.03581229 0.0031638197 0.03939746
000220 f6 1e b7 3d e1 3f 5a 3d 92 aa 1b 3d 93 51 71 3d
       0.08941452 0.053283576 0.038004465 0.058915686
000230 c5 17 98 3c 83 e4 66 3d 5d d9 45 3d e6 a2 6d 3d
       0.018566022 0.05637027 0.048302997 0.05801668
000240 ac 7e 49 3d b9 02 87 3d d5 91 bd 3c d8 ed d7 3c
       0.04919307 0.06592316 0.023140827 0.02635853
000250 aa 7d 41 bd 2a 36 ea bc b7 f6 b9 3c 80 42 b0 bc
       -0.047238983 -0.02859028 0.02270065 -0.021516085
000260 92 fb 0c bd 9e d6 18 bd e7 98 03 bd 7c aa 8e bc
       -0.034419604 -0.03731405 -0.03212824 -0.017415278
000270 40 f3 80 bd a4 6b 92 bd 1b 0c 52 bc c6 2a b6 bd
       -0.06296396 -0.07149437 -0.012820269 -0.08894877
000280 ec 5b 3e bd 1e b7 ea bc 4e 21 76 3d 8b 02 da 3c
       -0.046474382 -0.02865177 0.060090356 0.02661254
000290 9a c3 64 3d 13 f2 46 3d 93 ba a2 3c 2d c8 10 bc
       0.055850603 0.048570704 0.019864356 -0.008836788
0002a0 b6 da d0 3c a1 73 07 bd 99 b3 77 3c 1d 8f a3 bc
       0.025494915 -0.033069257 0.015118503 -0.019965703
0002b0 b2 72 55 3c b5 33 0d 3d f1 da f9 bb b9 76 f8 bb
       0.013027834 0.03447314 -0.007624977 -0.007582512
0002c0 0a a2 ed 3c 09 8f 1a bd 3d 6e 08 bc f5 8c 7d bc
       0.02900793 -0.037734065 -0.008327064 -0.015475501
0002d0 1a 00 63 bb 6d 9a 66 3d 9b c9 0b bd db 30 23 3d
       -0.0034637512 0.056299616 -0.034127813 0.039841514
0002e0 f4 76 3f bc b0 d9 b6 bc 72 96 2e bc e3 c2 3d 3c
       -0.0116860755 -0.022320598 -0.010655986 0.011582109
0002f0 39 ee 5f 3c bd 98 98 bb 5d ed 88 bc 1f 00 40 3d
       0.013667637 -0.0046568797 -0.016714746 0.046875115
000300 d0 f0 19 bc ba cd 88 bb 2f 9e 39 3c e7 c0 28 3c
       -0.009395793 -0.004174915 0.011329218 0.010299898
000310 16 f7 86 3d bc 51 c8 3c e1 70 eb bd 12 29 78 bd
       0.06590097 0.024453036 -0.11496139 -0.060586043
000320 19 2b 8e bb c8 4c 87 bd 0b 75 36 bd 7d be 74 3d
       -0.0043386337 -0.06606442 -0.044545215 0.059751976
000330 a9 8a 50 bd dd 62 42 3c 71 9d 31 3d 30 a8 ad bc
       -0.050913487 0.011864391 0.04336304 -0.021198362
000340 c5 3b ad bc 3e b4 d3 bd a6 b1 a5 bd ca 77 29 bb
       -0.021146664 -0.10337113 -0.080905244 -0.0025858753
000350 bd 63 09 bc 14 64 a4 bd 0c 6e b9 bd 70 a6 f4 bc
       -0.008385596 -0.08026901 -0.09054193 -0.02986452
000360 be bb b6 3d df 39 8b 3d 1c 39 d8 3b 80 51 06 3d
       0.08922528 0.067981474 0.006598605 0.03279257
000370 0a c5 2c 3c 21 46 8f bd 6d dc bd 3d 85 99 7a bc
       0.010545025 -0.06995798 0.092705585 -0.015295391
000380 df c2 0a 3d de 97 ab 3d cb 26 14 bd db a5 e3 3c
       0.03387725 0.08378576 -0.03616981 0.027789047
000390 e8 8c 72 3d c7 d0 a2 bc 5d a4 40 bd d2 33 06 3d
       0.05921641 -0.019874943 -0.04703175 0.032764263
0003a0 aa ca ce 3c fa 93 0c bd 3a e2 38 3d 64 f7 de bb
       0.025243122 -0.03432081 0.04513762 -0.0068043936
0003b0 a3 7d ab bb 08 4c 00 3d d6 01 79 bb 8d 2d b9 bd
       -0.005233483 0.03132251 -0.003799548 -0.09041891
0003c0 c7 af 55 3d 0b ef 08 bd d7 16 2e bd 07 de 71 3d
       0.052169587 -0.033431094 -0.04250225 0.059049632
0003d0 b3 8e 73 3c 5c a7 22 3d 09 ad 4f bb c0 4b 52 3b
       0.014865565 0.039710388 -0.003168883 0.0032088608
0003e0 57 c7 41 3d 26 56 25 3d 5f 41 88 bc ed ef 63 bc
       0.047309246 0.04036536 -0.016632734 -0.013912183
0003f0 e0 92 db 3c 93 4e c7 bc 47 93 16 bc a4 0e 72 bb
       0.026803434 -0.02432946 -0.009190387 -0.0036934996

conv2.bias f4 [24]
000000 c4 2c 51 bd 4d 19 1c be 43 d2 a1 bd ca 85 a9 3c
       -0.051068082 -0.15244026 -0.07901432 0.020693678
000010 8d e9 53 bd 59 53 24 bb fb bc 01 3e 6b b3 d4 39
       -0.051736403 -0.0025074093 0.12669747 0.00040569468
000020 c4 00 65 be 76 59 89 be bf a8 46 bd 34 b2 6a bd
       -0.22363573 -0.26826066 -0.048500773 -0.057298854
000030 3a f7 02 be 8d 73 eb bd 5a 90 e1 3c 62 d0 57 3d
       -0.12789622 -0.11496649 0.027534653 0.052688964
000040 a3 64 86 bc fb 15 37 bc 2d 9c 51 3e f1 80 7e 3b
       -0.01640541 -0.011174674 0.20469733 0.003883418
000050 8c 97 49 3d 50 14 7d bd ce 4f 34 39 56 8f d7 3e
       0.049216792 -0.06178695 0.00017195867 0.42101544

conv3.weight f4 [32, 24, 3, 3, 3]
000000 92 27 c1 bd 9e b3 e1 bd b1 e1 bc bd 88 34 e1 bd
       -0.094313756 -0.110205874 -0.09222735 -0.10996348
000010 c7 a6 48 bd 24 5b 0a bd cf 34 ec bd 73 9d 8f bd
       -0.048987176 -0.033778325 -0.1153351 -0.07012453
000020 a5 d9 98 bd 52 96 09 bd ab bd 4c bd f1 a9 06 bd
       -0.074633874 -0.033590622 -0.04998557 -0.032876913
000030 d6 62 14 ba 04 58 95 3c c3 02 b2 3c 0b b2 1b 3d
       -0.00056604797 0.018230446 0.021729833 0.038011592
000040 69 4f 24 bd b0 fd 44 bc a1 2d 08 3e 84 18 a1 3d
       -0.040114794 -0.012023374 0.13298656 0.07866004
000050 bb 7c fa 3d 1e e6 f3 3d 06 bc a4 3d 56 e5 20 3d
       0.12230822 0.11909126 0.08043675 0.03928121
000060 df d3 8a 3d 30 18 d0 3d e9 11 9d 3d 97 91 b6 3d
       0.067786925 0.101608634 0.07669432 0.08914488
000070 97 e3 c6 3a 8f 74 64 3e 70 b0 5f 3d 04 bd cb bd
       0.0015174028 0.22310089 0.054611623 -0.09948161
000080 89 8f 99 3d 6b 71 7e 3c e9 6a f3 bd af 39 07 3e
       0.0749808 0.015529971 -0.11885626 0.13205598
000090 83 2b f5 bc 72 0d 1d bd 57 4d 86 bd ed 40 a6 bd
       -0.029927975 -0.0383429 -0.0655772 -0.08117852
0000a0 39 2e b9 bc 1a 98 b1 bd ee 49 be bd 9c b9 e1 bd
       -0.022605048 -0.08671589 -0.09291445 -0.1102173
0000b0 7a fa fe bd 59 b2 3f bc 21 f2 92 3b 99 1a fb 3c
       -0.12450118 -0.011700236 0.0044844304 0.030652331
0000c0 70 68 92 bd 65 4f 70 bd 0c 92 dc 3c 8a 9f 89 bd
       -0.07148826 -0.058669467 0.02692511 -0.06719883
0000d0 08 00 99 bd bb 61 37 bd df 9b ca bd 74 4c 22 bd
       -0.07470709 -0.044770937 -0.09893011 -0.039623693
0000e0 1e a0 b2 bd 7f 39 39 bc c5 cf 83 bd e8 07 23 bd
       -0.08721946 -0.011305212 -0.06436113 -0.03980246
0000f0 20 28 63 bd 95 5a 54 bd da f0 97 bd f7 95 83 bd
       -0.055458188 -0.0518442 -0.07418986 -0.06425088
000100 6d be a3 bd 22 7e 9b 3c d3 87 7a bd bf 78 b5 bd
       -0.07995305 0.018981043 -0.06116469 -0.08860921
000110 0d 1e c6 3c 32 4e a8 bb bd f9 00 bd ca fc 58 bd
       0.024184251 -0.0051362747 -0.03148817 -0.052975453
000120 14 41 25 3c 49 bf c7 bb 02 c4 1a bc 22 bd d8 3c
       0.010086317 -0.006095801 -0.009446146 0.026457373
000130 b9 8e 32 bd 49 09 3e bd e3 d6 ba 3d e4 77 8d 3c
       -0.043593142 -0.046395574 0.09123018 0.017269082
000140 c1 3b d6 bc 9d 16 29 3d b0 34 32 bd 7a df 68 bd
       -0.02615154 0.04128133 -0.043507278 -0.05685375
000150 3a 40 7e 3d b3 d3 8a bd e3 05 ac bd d5 77 7c 3d
       0.06207297 -0.0677866 -0.0839956 0.06163772
000160 44 29 74 bd 8e 85 ab bd e3 79 a4 bd 6e c5 4b 3d
       -0.059609666 -0.08375083 -0.080310605 0.04974883
000170 7b 53 fa 3d 89 59 94 bd e5 21 32 bd ab 99 a1 3d
       0.12222954 -0.0724364 -0.043489356 0.07890638
000180 1d 4a a5 bd 7a ee 0c bb 65 5e d8 3d ca e6 92 bc
       -0.080707766 -0.0021504448 0.10564879 -0.017932314
000190 45 f5 95 bd 69 3f c8 bd 61 71 8f bd 06 bf bb bd
       -0.07322172 -0.097777195 -0.07004047 -0.09167294
0001a0 c6 a5 1a be 33 3e 6e bd 98 10 07 be bf 2f 34 be
       -0.151023 -0.058164787 -0.13189924 -0.17596339
0001b0 b6 fe 23 bd 53 5a 39 bc a3 b7 c6 3d c0 e8 c2 bd
       -0.040037833 -0.011313039 0.09702995 -0.0951705
0001c0 17 09 56 bd c3 28 c6 3d b6 bf 98 bd 83 e5 ee bc
       -0.052254763 0.096757434 -0.07458441 -0.029162174
0001d0 69 b0 02 3e 79 8d 09 bd 5c 5c 70 bd 30 35 d9 bd
       0.12762608 -0.033582184 -0.05868183 -0.10605848
0001e0 18 87 8d bc aa 0c 76 bd 36 a0 f7 bc 4d 9c 57 bd
       -0.017276332 -0.06007067 -0.030227762 -0.052639294
0001f0 70 6e 94 bd 82 f0 fd bd 63 ab 01 3d 02 4f 11 3d
       -0.07247627 -0.12399389 0.031657588 0.03547574
000200 14 e1 b0 3d 19 3b 79 bc 6a 6e 3c 3c 55 72 a5 3d
       0.0863668 -0.015211844 0.011500934 0.08078448
000210 1e 0c 80 3d fb db 62 3d 8c df cc 3c 93 a7 f1 bd
       0.06252311 0.05538557 0.02500894 -0.1179954
000220 77 33 22 be da 41 8a bd cd be 42 bd 4b 77 e9 bd
       -0.15839945 -0.067508414 -0.047545243 -0.113997065
000230 02 d7 56 bd 57 e4 6e bd 22 c1 12 be c9 6c b1 bd
       -0.05245114 -0.05832323 -0.14331487 -0.08663327
000240 4c 03 bc 3d b2 f3 65 bc a8 b5 43 bd e6 4b a3 3d
       0.09180316 -0.014035152 -0.047780663 0.07973461
000250 82 03 0b 3d 53 d1 68 bc 69 0e a8 3c 81 ef 1b bc
       0.033938892 -0.014210063 0.020514684 -0.009517551
000260 9f a9 ad bd ec 2e 79 3d e2 a1 0b 3d 25 2b e6 3c
       -0.08479618 0.060835764 0.03408993 0.028096745
000270 7e 26 b8 3d 82 f2 94 3d 1a f2 c9 3d 40 54 1a 3d
       0.08991717 0.07272817 0.0986063 0.037678003
000280 4b ab 15 bb 39 be 47 3d 5d d9 6f bc 2d bd 9b bd
       -0.0022837694 0.048765395 -0.014639226 -0.07604442
000290 25 ec 6b bc 3e f8 b4 bc 8b de bd bd b1 00 96 bd
       -0.014399563 -0.022091027 -0.09270962 -0.073243506
0002a0 3f e1 ae bb 57 ff a0 bd cb 1e 71 bd 3f 16 c2 bb
       -0.00533691 -0.07861202 -0.058867257 -0.005923062
0002b0 0a d7 88 bc e5 70 e1 3b 9c 9e e0 bc 28 0a 49 bd
       -0.016704101 0.006879913 -0.02741938 -0.04908195
0002c0 eb ee 04 bc 32 7e c0 3c 59 1f 52 3c 68 bc 86 bb
       -0.008113603 0.023497675 0.012824857 -0.0041118152
0002d0 63 c4 33 bc 09 ce 59 bd 67 7c 5d bd cb 57 6c 3b
       -0.010972115 -0.053175006 -0.054073717 0.003606307
0002e0 ea 8a 4d bd 2e c7 68 bd e8 56 f4 3a 8a 29 ee bb
       -0.050181307 -0.056830578 0.0018641623 -0.0072681354
0002f0 93 17 31 bd 8b 88 43 3c 90 ec e9 bc 8f 62 63 3c
       -0.043235373 0.01193441 -0.028555185 0.013878479
000300 65 a5 88 3c 14 01 ea 3c 6d 56 2e bc 9a 0d 2b bc
       0.016680429 0.028564967 -0.010640723 -0.010440255
000310 3d 65 51 3c ad d9 ee bb a2 c9 39 3d e1 6d 5c 3c
       0.012780485 -0.0072891326 0.045358308 0.013453932
000320 d1 c8 54 3b 24 de 48 3b b5 75 85 bc 5a d6 2a 3d
       0.0032468329 0.0030649984 -0.016291479 0.041708328
000330 09 5b 39 3d d6 6b d4 3c 99 c4 ca 3b 94 41 24 3c
       0.045252834 0.025930326 0.006187987 0.010025401
000340 81 0a 84 3b 89 9b 78 3d 2e 01 ea 3c 77 7d 22 3b
       0.0040295725 0.060695205 0.028565016 0.002479402
000350 19 53 a2 3d ae f4 0c 3d fd b4 37 bc b8 56 a2 3d
       0.07926006 0.034413032 -0.011212585 0.079266965
000360 05 7c 80 bc 7b da 9d 3b c9 23 a9 bd e6 0b 81 bd
       -0.015684137 0.0048173047 -0.082587786 -0.063010976
000370 b5 75 83 bd 51 07 95 bd 73 14 c2 bd 59 70 30 bd
       -0.06418935 -0.07276786 -0.09476557 -0.043075893
000380 e7 25 a4 bd 18 9f 30 bc 95 9a 28 3d 8d 6a 48 3c
       -0.08015042 -0.010780118 0.041163046 0.012232435
000390 43 4d fd bc 8a c4 2f bc 44 07 65 3d 0e fd 5c bc
       -0.03092063 -0.010728011 0.055915132 -0.013488067
0003a0 43 42 1e 3d e1 d9 13 3d 4a b4 1e 3d 4a f0 ad bd
       0.03863741 0.036096457 0.038746156 -0.08493097
0003b0 2c d3 7c bd e0 1d 4e 3d 45 a3 bc bc dc 6c 88 bb
       -0.061724827 0.05032146 -0.023027072 -0.0041633677
0003c0 bf ab 24 3d ff 2b d5 bc 5a 31 0b bd 80 d9 dd be
       0.040202852 -0.026021956 -0.033982612 -0.43330002
0003d0 ad d2 47 be 96 93 35 be 65 cf a0 be 01 fb 0b be
       -0.1951396 -0.17732081 -0.3140823 -0.13669969
0003e0 6d de 11 be d8 08 ac be 4a 4c 66 be bb a2 02 be
       -0.14245005 -0.33600497 -0.2249004 -0.12757389
0003f0 eb b0 57 3d ba a4 47 bd 5c d0 94 bd a9 f6 11 bd
       0.052658956 -0.04874108 -0.07266304 -0.035635624

conv3.bias f4 [32]
000000 5a 4f a0 3c 58 72 bb bd e9 77 2d bd af 79 a9 3d
       0.019569088 -0.09152669 -0.042350683 0.082751624
000010 9e c7 31 bd a0 49 fc 3d 3a 23 83 3d 6f e9 fe bc
       -0.04340326 0.1231873 0.06403203 -0.03111717
000020 7a 61 3e 3d b2 6e 9b 3e e5 70 1b bd 92 7f ac 3e
       0.04647968 0.3035789 -0.03794946 0.33691078
000030 6a b6 81 bc 9c ae a0 bd 26 4e 4a 3c f0 29 7d 3c
       -0.015834052 -0.07845804 0.012347734 0.015451893
000040 76 79 6e bd 8f 0c 07 3f bd 6e 4b bc af 6a 9b bc
       -0.058221303 0.5275354 -0.012416539 -0.01897177
000050 df 5d f3 bb ac 29 a1 3d dc 1c 80 3d e7 b7 a7 3e
       -0.007426962 0.078692764 0.062555045 0.32757494
000060 11 fc 43 bd e8 96 a4 3a 49 a9 b0 3b 45 cd 2b 3d
       -0.04784781 0.0012557181 0.005391274 0.041943807
000070 43 91 6a bd 65 8e 02 3e 77 c0 17 bd 54 b3 e6 bd
       -0.05726744 0.12749632 -0.037048783 -0.11264673

conv4.weight f4 [12, 32, 1, 6, 6]
000000 b8 d9 1e 3d 60 28 1f be e4 89 59 3d a3 87 3f 3c
       0.03878185 -0.15542746 0.05311002 0.011690053
000010 d4 3e 4a 3c 26 39 ef bc 26 58 02 3c 62 0a 30 bd
       0.012344081 -0.029202055 0.007955587 -0.04297865
000020 f0 63 e4 3c 4c 27 99 bd 1d c2 b2 3c 5d 58 c9 bc
       0.027879685 -0.074781984 0.021821076 -0.024578268
000030 06 3e 1d 3d 66 52 af bd 61 9f 12 3e 2e 53 54 bd
       0.03838923 -0.08560638 0.1431861 -0.05183714
000040 34 aa 62 3d cc 42 bc bd e6 95 30 3d 45 cf 31 be
       0.0553381 -0.09192428 0.043111704 -0.17364223
000050 42 84 96 3d 64 e6 f1 3b f8 3c 00 3e 45 cd 10 bd
       0.07349445 0.007382201 0.12523258 -0.03535201
000060 82 6b 4a bc 2d ee e5 bd 67 a5 c4 3c ef 94 14 bd
       -0.012354733 -0.11227069 0.024004651 -0.036274847
000070 7d 75 13 3a 7f cc a2 bd 72 21 82 bd 2c bc 2e be
       0.0005625112 -0.07949161 -0.063540354 -0.1706397
000080 25 3f db 3b 41 06 ad 3d d0 6b a4 3d 6d fd 6e 3d
       0.006690877 0.084484585 0.08028376 0.058347154
000090 b2 cc 2f bd 78 ce 28 3d 4b ba 61 bc dc 45 42 39
       -0.042919822 0.04121253 -0.013777326 0.00018527306
0000a0 19 23 9a 3c b1 a6 24 be d2 89 f0 bd da 95 b7 bc
       0.018815564 -0.16079213 -0.11745037 -0.022410322
0000b0 ff 2f 6b bd c3 f4 53 3d 6f ec 2c bc c3 9f ac 3b
       -0.05741882 0.051747095 -0.010554417 0.0052680685
0000c0 92 2b 22 be 12 a5 8e bd 2d 80 1d bd 70 70 83 bc
       -0.15836933 -0.069650784 -0.038452316 -0.016044825
0000d0 e2 5e 2e bc 42 ad b0 bd 68 c7 92 bd 92 e5 55 bd
       -0.010642739 -0.08626796 -0.0716694 -0.05222089
0000e0 e9 89 df b8 2c 6f 0c bc e1 cd 0b bd 48 39 ee bd
       -0.000106591564 -0.008571427 -0.03413189 -0.11632019
0000f0 fa 0a 23 bd e8 05 38 bd 09 f2 02 bd a4 f8 2f bd
       -0.03980539 -0.044927508 -0.031969104 -0.04296173
000100 76 a7 27 bc 6f 49 b6 bd 0b 03 ba bd ca 15 0a bd
       -0.010232797 -0.08900725 -0.09082612 -0.033712186
000110 26 6c d2 bd 8c 17 b6 bd 34 02 70 bd a2 38 e8 bd
       -0.10274534 -0.0889121 -0.05859585 -0.11338927
000120 59 a4 a2 3d ac 01 43 3d c4 47 99 bd 06 02 3a 3d
       0.07941503 0.047609016 -0.07484391 0.045412086
000130 99 e0 12 3d 62 af c4 3b 3d 64 c6 bc 4d 60 e2 3b
       0.035858724 0.0060023526 -0.02421772 0.0069084526
000140 b9 3b 47 3b 17 d6 3e 3d 03 ed 4f 3c 1b bf a0 3c
       0.0030400588 0.04659089 0.012690785 0.019622376
000150 17 72 22 3d fd 9b 12 3c f6 84 5c 3c a3 25 1b 3d
       0.039659586 0.008948323 0.013459435 0.03787769
000160 3a e6 e2 bc 8d c4 ee 3c 8d 95 e7 3c b7 f1 31 3c
       -0.027697671 0.029146457 0.028269554 0.010860852
000170 65 1f 99 3c 8b cb 15 3d f4 88 84 3c dc 86 5c 3c
       0.018691728 0.036571067 0.016178586 0.013459887
000180 fe f0 95 3b b1 c3 71 3c b3 6d 37 bd ea d5 5f 3c
       0.0045758476 0.014756129 -0.04478235 0.013661841
000190 7a 60 28 3d 1a 34 70 3d 33 1a b6 ba d2 c4 00 3d
       0.041107632 0.058643438 -0.0013893306 0.031437702
0001a0 74 74 f1 3b 7d 02 d3 3c 00 af 10 3c 89 8e 94 3d
       0.0073686186 0.025758022 0.008830786 0.07253749
0001b0 d6 6a 8e 3d b6 be 32 3d 14 6a 90 3c c6 86 c2 3d
       0.06953971 0.043638907 0.017628707 0.09498362
0001c0 6f 39 3e 3d dc 89 a3 bc c5 d5 46 3d 4b 3c b7 3d
       0.04644149 -0.019963197 0.04854371 0.08947047
0001d0 34 86 d8 bc 4a 45 7a 3b ef d6 af bc 0c f1 37 bd
       -0.02643118 0.0038188272 -0.021464793 -0.044907615
0001e0 8e 5f c8 3d 75 67 d4 3d d6 3e 04 3d 4f 8a b1 bc
       0.097838506 0.10371295 0.032286488 -0.021672396
0001f0 ee 25 fa 3c c2 f6 4c ba dd 8f 7d 3d d3 ca d0 3b
       0.030535664 -0.0007818752 0.061904777 0.006371835
000200 c4 47 ba 3c e0 24 a3 bd 93 cc 26 bd e8 6d 0a 3d
       0.022739299 -0.07966018 -0.04072244 0.03379622
000210 59 42 91 3c 4a fb 9a 3d 5f 4f 35 3d 0c c1 6d 3c
       0.017731832 0.07567461 0.044265147 0.014511358
000220 f5 77 0f bb 6d 26 9d bc 2d d3 36 ba 27 93 ea 3c
       -0.0021891568 -0.019183362 -0.00069742167 0.02863462
000230 da 14 a3 3c 77 41 85 3d b4 57 96 bd 8f 11 14 be
       0.019907404 0.06506627 -0.07340947 -0.14459823
000240 1e da 15 3d 15 f8 d2 3d 4b 18 e2 3d e7 ab 03 3e
       0.036584966 0.10301224 0.1103979 0.12858544
000250 ce e2 14 3d cb bb 68 3d b3 cd 2b bc a9 85 88 bc
       0.03634911 0.05681972 -0.010486054 -0.016665297
000260 b2 81 11 3c 22 f8 18 bc 51 ce cc 3a 7c df 3d 3d
       0.008881019 -0.009336503 0.0015625452 0.04635571
000270 83 d1 82 3d a3 e3 27 bc bd f3 65 bd d9 96 cc bd
       0.063876174 -0.010247144 -0.05614065 -0.099897094
000280 51 53 24 bd b9 b5 89 3d f2 5c a4 3d 1d 16 4e bc
       -0.04011852 0.06724114 0.080255404 -0.012578514
000290 2e f0 f7 bb cf f4 36 bd 63 46 33 bd a5 41 bc 3c
       -0.0075664734 -0.04466706 -0.043768298 0.02298052
0002a0 04 84 dd 3c 7d 58 ed bc ee 37 d7 bb 44 ef 3f 3b
       0.027040489 -0.028972859 -0.0065679466 0.00292869
0002b0 06 32 cf 3b ea 6e d1 3c a4 41 28 bc ee 94 4e 3c
       0.006323102 0.025565583 -0.010269556 0.01260875
0002c0 80 63 27 bd e7 be 95 bd 78 02 d6 bc 9e 79 25 3d
       -0.040866375 -0.07311802 -0.026124224 0.040399186
0002d0 76 81 c7 3d f3 3e 42 bb 36 af 01 3c b7 32 97 3d
       0.097414896 -0.0029639571 0.007915309 0.0738272
0002e0 b8 b8 c7 bc 45 17 bf 3c 6c 9b b7 3c 13 29 f4 3c
       -0.024380073 0.023326525 0.022412978 0.029804742
0002f0 f9 5a bc 3c ee 2b 99 3b 9d ea 84 bc 83 5f 2c bd
       0.022992598 0.0046744263 -0.016225154 -0.042083275
000300 90 48 6d 3d 7d c6 7d 3d 81 91 92 3d 0a 6d 94 bc
       0.05793053 0.06195687 0.07156659 -0.0181184
000310 1e 0d 21 3c 6c ab bc 3c ec aa 1f 3d 2d 4a 8c bc
       0.009829788 0.02303096 0.038981363 -0.017125214
000320 44 81 8c bb 8a 18 78 bc ab f0 9a 3d e6 e8 ee 3b
       -0.0042878706 -0.015142569 0.07565435 0.0072909473
000330 92 ff 8a bc 3a cd 68 3d 3b 29 5b 3c 50 b8 12 3b
       -0.016967569 0.056836344 0.013376529 0.002238769
000340 68 b8 a4 bc 9b 79 12 ba 01 f6 23 3e 02 9c bd 3d
       -0.020107463 -0.00055875786 0.16011812 0.09258272
000350 2b 1f d0 3d ff 27 29 3d d2 f3 af 3d 8a 73 0b 3c
       0.10162195 0.04129791 0.08591427 0.008511433
000360 f1 25 7f bd b2 3a b7 bd e2 9d 44 bd 91 a4 21 bd
       -0.062292043 -0.08946742 -0.04800213 -0.039463583
000370 5c 9d 62 bd 1f 8a e4 bc 1d 35 c8 bd ec 8e 63 bd
       -0.05532585 -0.027897893 -0.097757556 -0.055556223
000380 ee 6f 24 3b 96 17 a8 bd b0 51 6b bd d4 f4 1f bd
       0.002509113 -0.08207624 -0.05745095 -0.039051846
000390 d6 be 11 3c 29 51 9f bd 10 85 44 ba bb 85 18 bd
       0.0088955965 -0.07779152 -0.00074966345 -0.03723691
0003a0 5f 3c 53 bd c2 d9 be bc 4a 54 a3 bb 94 68 d4 bc
       -0.051571246 -0.023297194 -0.0049844133 -0.025928773
0003b0 a3 67 1a bc 82 53 32 bd e6 0c 3f bd f5 cd c7 3a
       -0.009424123 -0.04353667 -0.04664316 0.0015243875
0003c0 cf 6d 53 bd 26 98 bd bd ba 38 87 bd 3e 33 bf bc
       -0.051618394 -0.09257536 -0.066026166 -0.023339864
0003d0 61 4f 87 bd f3 92 16 bd 66 51 9d bd 4e e5 5f bd
       -0.06606937 -0.036761235 -0.07681541 -0.05466204
0003e0 d3 f1 88 bd e5 6c 73 bd 78 9e 85 bd 6f 8e ce bd
       -0.06686749 -0.05943002 -0.06524366 -0.10085761
0003f0 98 52 08 3d 7d 72 f7 3c 9d 6f f0 3c b8 9a 71 bd
       0.033281893 0.03020596 0.029350096 -0.058985442

conv4.bias f4 [12]
000000 b8 6c c8 3d 6c fb ca 3d b7 56 51 3e 56 75 48 3e
       0.097863615 0.09911236 0.20443235 0.1957601
000010 73 4b ca bd ff 37 64 bc 1c d4 f8 bc 85 c8 ae 3d
       -0.09877672 -0.013929366 -0.03037458 0.0853434
000020 5f 08 91 bb 75 55 45 3e 9c b8 a7 3d 75 e2 83 3e
       -0.0044260467 0.1927088 0.08189508 0.2575871

softmaxConv.weight f4 [2, 12, 4, 1, 1]
000000 77 68 fc be 5a 16 3c bd 8d 40 3c be d2 b3 6f 3e
       -0.4929845 -0.045919754 -0.18383999 0.2340844
000010 9a 3a 9f 3e 71 d1 75 3c 13 00 d0 bc f7 38 d6 be
       0.31099397 0.015003548 -0.02539066 -0.41840336
000020 96 6e ad 3e 5b 17 da 3d 1a 48 88 3e db 34 07 be
       0.33873433 0.10648986 0.2661751 -0.13203757
000030 77 83 ad 3e cd 53 27 3d 0c b2 85 3d 55 b8 33 be
       0.33889362 0.040851403 0.065281 -0.17550786
000040 80 eb 7b be cb 50 88 be 67 bc c0 bd d9 1f 0a be
       -0.24601555 -0.2662414 -0.09410935 -0.13488711
000050 24 1d 27 be d2 e3 9b 3d a6 cc fe 3d f2 27 d5 bd
       -0.1631971 0.07611813 0.12441377 -0.104080096
000060 a6 04 9c bc 4e 28 1c bc 7c e2 fa bd ca 09 f0 bd
       -0.019045185 -0.009531094 -0.1225023 -0.11720617
000070 17 38 37 be 13 4d e1 bc 0d ee b5 bd 9a a4 d9 3e
       -0.1789249 -0.027502572 -0.08883295 0.42508394
000080 b2 d4 76 be af 60 88 bd 5e 5a b6 b9 70 d4 d3 be
       -0.24104574 -0.06659066 -0.00034781074 -0.41373014
000090 e7 c0 9b bd e9 5f f9 3d bf 94 99 3e cc df a7 3e
       -0.076051526 0.121764965 0.29996297 0.3278793
0000a0 80 c5 b1 3e 88 7a b4 be d5 f9 d3 be 7d 95 a4 3d
       0.34720993 -0.35249734 -0.41401544 0.08036325
0000b0 45 06 d4 be c5 ba 42 bc 90 ac d2 3c 49 7f 88 3d
       -0.41411033 -0.01188535 0.02571705 0.06664903
0000c0 a0 3e af 3e f4 ba cf 3b 31 38 d7 3d 0e 76 29 be
       0.34227467 0.006339425 0.105087645 -0.1654894
0000d0 ce 78 84 be 2b 30 9a bc c5 49 91 3d aa e6 aa 3e
       -0.25873417 -0.018821796 0.070941485 0.33379108
0000e0 73 11 e2 3d 5f c4 02 3e c5 1a 71 3c 90 66 eb 3e
       0.110384844 0.12770222 0.014715855 0.45976686
0000f0 2e b0 ac be 7a b3 8a bd 40 4f b7 bd f0 1e 3f bd
       -0.33728164 -0.06772514 -0.089506626 -0.046660364
000100 1a 96 40 bd d1 85 cf 3c 69 02 c4 3d a6 8d bf 3c
       -0.047018148 0.025332363 0.09570772 0.023382973
000110 b2 2b 91 bd de d9 92 bc 25 71 a3 bd 60 47 08 3e
       -0.07088412 -0.017926153 -0.07980565 0.13308477
000120 95 36 04 bc 0c d0 9a 3d c6 1f b9 bc df 0d 0b bd
       -0.008069654 0.07559213 -0.022598159 -0.033948775
000130 f3 b7 aa 3d 73 66 84 b9 ba f6 9f 3d 0b b3 ff be
       0.08335867 -0.00025253333 0.07810731 -0.49941286
000140 c9 e3 98 3e f4 0c 2b 3e b4 d2 48 3e dc f1 27 3e
       0.29861286 0.1670416 0.19611627 0.16400856
000150 14 d2 b2 bd cc ab 5b be 27 c7 9e bd 54 1d 2f be
       -0.087314755 -0.21452254 -0.07752829 -0.17101032
000160 af fb 86 be cf c8 a8 3e 0f 7b a9 3e b3 2d f8 bd
       -0.26363894 0.32965705 0.331017 -0.121180914
000170 cb db c1 3e 65 33 12 3d 38 20 fd 3c 92 be bd bc
       0.37863 0.035693545 0.030899152 -0.02316216

softmaxConv.bias f4 [2]
000000 b8 06 93 3e b2 05 3c 3f
       0.28716063 0.7344619
